…
wandb:  $ pip install wandb --upgrade
wandb: Tracking run with wandb version 0.12.17
wandb: Run data is saved locally in /home/qingyi/GPU20/DeepLOB/wandb/run-20240907_120440-sl6k0hjf
wandb: Run `wandb offline` to turn off syncing.
wandb: Syncing run preTCN
wandb: ⭐️ View project at https://wandb.ai/pqythu/futures50
wandb: 🚀 View run at https://wandb.ai/pqythu/futures50/runs/sl6k0hjf
Model(
  (feature_extractor): InceptionTimePlus(
    (backbone): Sequential(
      (0): InceptionBlockPlus(
        (inception): ModuleList(
          (0): InceptionModulePlus(
            (bottleneck): ConvBlock(
              (0): Conv1d(10, 32, kernel_size=(1,), stride=(1,), bias=False)
            )
            (convs): ModuleList(
              (0): ConvBlock(
                (0): Conv1d(32, 32, kernel_size=(39,), stride=(1,), padding=(19,), bias=False)
              )
              (1): ConvBlock(
                (0): Conv1d(32, 32, kernel_size=(19,), stride=(1,), padding=(9,), bias=False)
              )
              (2): ConvBlock(
                (0): Conv1d(32, 32, kernel_size=(9,), stride=(1,), padding=(4,), bias=False)
              )
            )
            (mp_conv): Sequential(
              (0): MaxPool1d(kernel_size=3, stride=1, padding=1, dilation=1, ceil_mode=False)
              (1): ConvBlock(
                (0): Conv1d(10, 32, kernel_size=(1,), stride=(1,), bias=False)
              )
            )
            (concat): Concat(dim=1)
            (norm): BatchNorm1d(128, eps=1e-05, momentum=0.1, affine=True, track_running_stats=True)
            (act): ReLU()
          )
          (1): InceptionModulePlus(
            (bottleneck): ConvBlock(
              (0): Conv1d(128, 32, kernel_size=(1,), stride=(1,), bias=False)
            )
            (convs): ModuleList(
              (0): ConvBlock(
                (0): Conv1d(32, 32, kernel_size=(39,), stride=(1,), padding=(19,), bias=False)
              )
              (1): ConvBlock(
                (0): Conv1d(32, 32, kernel_size=(19,), stride=(1,), padding=(9,), bias=False)
              )
              (2): ConvBlock(
                (0): Conv1d(32, 32, kernel_size=(9,), stride=(1,), padding=(4,), bias=False)
              )
            )
            (mp_conv): Sequential(
              (0): MaxPool1d(kernel_size=3, stride=1, padding=1, dilation=1, ceil_mode=False)
              (1): ConvBlock(
                (0): Conv1d(128, 32, kernel_size=(1,), stride=(1,), bias=False)
              )
            )
            (concat): Concat(dim=1)
            (norm): BatchNorm1d(128, eps=1e-05, momentum=0.1, affine=True, track_running_stats=True)
            (act): ReLU()
          )
          (2): InceptionModulePlus(
            (bottleneck): ConvBlock(
              (0): Conv1d(128, 32, kernel_size=(1,), stride=(1,), bias=False)
            )
            (convs): ModuleList(
              (0): ConvBlock(
                (0): Conv1d(32, 32, kernel_size=(39,), stride=(1,), padding=(19,), bias=False)
              )
              (1): ConvBlock(
                (0): Conv1d(32, 32, kernel_size=(19,), stride=(1,), padding=(9,), bias=False)
              )
              (2): ConvBlock(
                (0): Conv1d(32, 32, kernel_size=(9,), stride=(1,), padding=(4,), bias=False)
              )
            )
            (mp_conv): Sequential(
              (0): MaxPool1d(kernel_size=3, stride=1, padding=1, dilation=1, ceil_mode=False)
              (1): ConvBlock(
                (0): Conv1d(128, 32, kernel_size=(1,), stride=(1,), bias=False)
              )
            )
            (concat): Concat(dim=1)
            (norm): BatchNorm1d(128, eps=1e-05, momentum=0.1, affine=True, track_running_stats=True)
          )
          (3): InceptionModulePlus(
            (bottleneck): ConvBlock(
              (0): Conv1d(128, 32, kernel_size=(1,), stride=(1,), bias=False)
            )
            (convs): ModuleList(
              (0): ConvBlock(
                (0): Conv1d(32, 32, kernel_size=(39,), stride=(1,), padding=(19,), bias=False)
              )
              (1): ConvBlock(
                (0): Conv1d(32, 32, kernel_size=(19,), stride=(1,), padding=(9,), bias=False)
              )
              (2): ConvBlock(
                (0): Conv1d(32, 32, kernel_size=(9,), stride=(1,), padding=(4,), bias=False)
              )
            )
            (mp_conv): Sequential(
              (0): MaxPool1d(kernel_size=3, stride=1, padding=1, dilation=1, ceil_mode=False)
              (1): ConvBlock(
                (0): Conv1d(128, 32, kernel_size=(1,), stride=(1,), bias=False)
              )
            )
            (concat): Concat(dim=1)
            (norm): BatchNorm1d(128, eps=1e-05, momentum=0.1, affine=True, track_running_stats=True)
            (act): ReLU()
          )
          (4): InceptionModulePlus(
            (bottleneck): ConvBlock(
              (0): Conv1d(128, 32, kernel_size=(1,), stride=(1,), bias=False)
            )
            (convs): ModuleList(
              (0): ConvBlock(
                (0): Conv1d(32, 32, kernel_size=(39,), stride=(1,), padding=(19,), bias=False)
              )
              (1): ConvBlock(
                (0): Conv1d(32, 32, kernel_size=(19,), stride=(1,), padding=(9,), bias=False)
              )
              (2): ConvBlock(
                (0): Conv1d(32, 32, kernel_size=(9,), stride=(1,), padding=(4,), bias=False)
              )
            )
            (mp_conv): Sequential(
              (0): MaxPool1d(kernel_size=3, stride=1, padding=1, dilation=1, ceil_mode=False)
              (1): ConvBlock(
                (0): Conv1d(128, 32, kernel_size=(1,), stride=(1,), bias=False)
              )
            )
            (concat): Concat(dim=1)
            (norm): BatchNorm1d(128, eps=1e-05, momentum=0.1, affine=True, track_running_stats=True)
            (act): ReLU()
          )
          (5): InceptionModulePlus(
            (bottleneck): ConvBlock(
              (0): Conv1d(128, 32, kernel_size=(1,), stride=(1,), bias=False)
            )
            (convs): ModuleList(
              (0): ConvBlock(
                (0): Conv1d(32, 32, kernel_size=(39,), stride=(1,), padding=(19,), bias=False)
              )
              (1): ConvBlock(
                (0): Conv1d(32, 32, kernel_size=(19,), stride=(1,), padding=(9,), bias=False)
              )
              (2): ConvBlock(
                (0): Conv1d(32, 32, kernel_size=(9,), stride=(1,), padding=(4,), bias=False)
              )
            )
            (mp_conv): Sequential(
              (0): MaxPool1d(kernel_size=3, stride=1, padding=1, dilation=1, ceil_mode=False)
              (1): ConvBlock(
                (0): Conv1d(128, 32, kernel_size=(1,), stride=(1,), bias=False)
              )
            )
            (concat): Concat(dim=1)
            (norm): BatchNorm1d(128, eps=1e-05, momentum=0.1, affine=True, track_running_stats=True)
          )
        )
        (shortcut): ModuleList(
          (0): ConvBlock(
            (0): Conv1d(10, 128, kernel_size=(1,), stride=(1,), bias=False)
            (1): BatchNorm1d(128, eps=1e-05, momentum=0.1, affine=True, track_running_stats=True)
          )
          (1): BatchNorm1d(128, eps=1e-05, momentum=0.1, affine=True, track_running_stats=True)
        )
        (act): ModuleList(
          (0): ReLU()
          (1): ReLU()
        )
        (add): Add
      )
    )
    (head): Sequential(
      (0): Sequential(
        (0): GAP1d(
          (gap): AdaptiveAvgPool1d(output_size=1)
          (flatten): Reshape(bs)
        )
        (1): LinBnDrop(
          (0): Linear(in_features=128, out_features=5, bias=True)
        )
      )
    )
  )
  (fc): Linear(in_features=5, out_features=5, bias=True)
)
number of parameters: 457251
Training start
epoch  1 | time used:  2.36s | train_loss 1.531 | valid loss 1.503 | valid acc 0.383 | mae 1.830 | mse 6.250 | rmse 2.50 | r2 -1.15 | sharp 0.74
epoch  2 | time used:  0.49s | train_loss 1.532 | valid loss 1.835 | valid acc 0.090 | mae 1.595 | mse 3.590 | rmse 1.89 | r2 -0.24 | sharp 0.74
epoch  3 | time used:  0.51s | train_loss 1.478 | valid loss 1.481 | valid acc 0.312 | mae 2.170 | mse 7.610 | rmse 2.76 | r2 -1.62 | sharp 0.00
…
