…
wandb:  $ pip install wandb --upgrade
wandb: Tracking run with wandb version 0.12.17
wandb: Run data is saved locally in /home/qingyi/GPU20/DeepLOB/wandb/run-20240907_112221-2py12fff
wandb: Run `wandb offline` to turn off syncing.
wandb: Syncing run preTCN
wandb: ⭐️ View project at https://wandb.ai/pqythu/futures300
wandb: 🚀 View run at https://wandb.ai/pqythu/futures300/runs/2py12fff
Model(
  (feature_extractor): InceptionTimePlus(
    (backbone): Sequential(
      (0): InceptionBlockPlus(
        (inception): ModuleList(
          (0): InceptionModulePlus(
            (bottleneck): ConvBlock(
              (0): Conv1d(10, 32, kernel_size=(1,), stride=(1,), bias=False)
            )
            (convs): ModuleList(
              (0): ConvBlock(
                (0): Conv1d(32, 32, kernel_size=(39,), stride=(1,), padding=(19,), bias=False)
              )
              (1): ConvBlock(
                (0): Conv1d(32, 32, kernel_size=(19,), stride=(1,), padding=(9,), bias=False)
              )
              (2): ConvBlock(
                (0): Conv1d(32, 32, kernel_size=(9,), stride=(1,), padding=(4,), bias=False)
              )
            )
            (mp_conv): Sequential(
              (0): MaxPool1d(kernel_size=3, stride=1, padding=1, dilation=1, ceil_mode=False)
              (1): ConvBlock(
                (0): Conv1d(10, 32, kernel_size=(1,), stride=(1,), bias=False)
              )
            )
            (concat): Concat(dim=1)
            (norm): BatchNorm1d(128, eps=1e-05, momentum=0.1, affine=True, track_running_stats=True)
            (act): ReLU()
          )
          (1): InceptionModulePlus(
            (bottleneck): ConvBlock(
              (0): Conv1d(128, 32, kernel_size=(1,), stride=(1,), bias=False)
            )
            (convs): ModuleList(
              (0): ConvBlock(
                (0): Conv1d(32, 32, kernel_size=(39,), stride=(1,), padding=(19,), bias=False)
              )
              (1): ConvBlock(
                (0): Conv1d(32, 32, kernel_size=(19,), stride=(1,), padding=(9,), bias=False)
              )
              (2): ConvBlock(
                (0): Conv1d(32, 32, kernel_size=(9,), stride=(1,), padding=(4,), bias=False)
              )
            )
            (mp_conv): Sequential(
              (0): MaxPool1d(kernel_size=3, stride=1, padding=1, dilation=1, ceil_mode=False)
              (1): ConvBlock(
                (0): Conv1d(128, 32, kernel_size=(1,), stride=(1,), bias=False)
              )
            )
            (concat): Concat(dim=1)
            (norm): BatchNorm1d(128, eps=1e-05, momentum=0.1, affine=True, track_running_stats=True)
            (act): ReLU()
          )
          (2): InceptionModulePlus(
            (bottleneck): ConvBlock(
              (0): Conv1d(128, 32, kernel_size=(1,), stride=(1,), bias=False)
            )
            (convs): ModuleList(
              (0): ConvBlock(
                (0): Conv1d(32, 32, kernel_size=(39,), stride=(1,), padding=(19,), bias=False)
              )
              (1): ConvBlock(
                (0): Conv1d(32, 32, kernel_size=(19,), stride=(1,), padding=(9,), bias=False)
              )
              (2): ConvBlock(
                (0): Conv1d(32, 32, kernel_size=(9,), stride=(1,), padding=(4,), bias=False)
              )
            )
            (mp_conv): Sequential(
              (0): MaxPool1d(kernel_size=3, stride=1, padding=1, dilation=1, ceil_mode=False)
              (1): ConvBlock(
                (0): Conv1d(128, 32, kernel_size=(1,), stride=(1,), bias=False)
              )
            )
            (concat): Concat(dim=1)
            (norm): BatchNorm1d(128, eps=1e-05, momentum=0.1, affine=True, track_running_stats=True)
          )
          (3): InceptionModulePlus(
            (bottleneck): ConvBlock(
              (0): Conv1d(128, 32, kernel_size=(1,), stride=(1,), bias=False)
            )
            (convs): ModuleList(
              (0): ConvBlock(
                (0): Conv1d(32, 32, kernel_size=(39,), stride=(1,), padding=(19,), bias=False)
              )
              (1): ConvBlock(
                (0): Conv1d(32, 32, kernel_size=(19,), stride=(1,), padding=(9,), bias=False)
              )
              (2): ConvBlock(
                (0): Conv1d(32, 32, kernel_size=(9,), stride=(1,), padding=(4,), bias=False)
              )
            )
            (mp_conv): Sequential(
              (0): MaxPool1d(kernel_size=3, stride=1, padding=1, dilation=1, ceil_mode=False)
              (1): ConvBlock(
                (0): Conv1d(128, 32, kernel_size=(1,), stride=(1,), bias=False)
              )
            )
            (concat): Concat(dim=1)
            (norm): BatchNorm1d(128, eps=1e-05, momentum=0.1, affine=True, track_running_stats=True)
            (act): ReLU()
          )
          (4): InceptionModulePlus(
            (bottleneck): ConvBlock(
              (0): Conv1d(128, 32, kernel_size=(1,), stride=(1,), bias=False)
            )
            (convs): ModuleList(
              (0): ConvBlock(
                (0): Conv1d(32, 32, kernel_size=(39,), stride=(1,), padding=(19,), bias=False)
              )
              (1): ConvBlock(
                (0): Conv1d(32, 32, kernel_size=(19,), stride=(1,), padding=(9,), bias=False)
              )
              (2): ConvBlock(
                (0): Conv1d(32, 32, kernel_size=(9,), stride=(1,), padding=(4,), bias=False)
              )
            )
            (mp_conv): Sequential(
              (0): MaxPool1d(kernel_size=3, stride=1, padding=1, dilation=1, ceil_mode=False)
              (1): ConvBlock(
                (0): Conv1d(128, 32, kernel_size=(1,), stride=(1,), bias=False)
              )
            )
            (concat): Concat(dim=1)
            (norm): BatchNorm1d(128, eps=1e-05, momentum=0.1, affine=True, track_running_stats=True)
            (act): ReLU()
          )
          (5): InceptionModulePlus(
            (bottleneck): ConvBlock(
              (0): Conv1d(128, 32, kernel_size=(1,), stride=(1,), bias=False)
            )
            (convs): ModuleList(
              (0): ConvBlock(
                (0): Conv1d(32, 32, kernel_size=(39,), stride=(1,), padding=(19,), bias=False)
              )
              (1): ConvBlock(
                (0): Conv1d(32, 32, kernel_size=(19,), stride=(1,), padding=(9,), bias=False)
              )
              (2): ConvBlock(
                (0): Conv1d(32, 32, kernel_size=(9,), stride=(1,), padding=(4,), bias=False)
              )
            )
            (mp_conv): Sequential(
              (0): MaxPool1d(kernel_size=3, stride=1, padding=1, dilation=1, ceil_mode=False)
              (1): ConvBlock(
                (0): Conv1d(128, 32, kernel_size=(1,), stride=(1,), bias=False)
              )
            )
            (concat): Concat(dim=1)
            (norm): BatchNorm1d(128, eps=1e-05, momentum=0.1, affine=True, track_running_stats=True)
          )
        )
        (shortcut): ModuleList(
          (0): ConvBlock(
            (0): Conv1d(10, 128, kernel_size=(1,), stride=(1,), bias=False)
            (1): BatchNorm1d(128, eps=1e-05, momentum=0.1, affine=True, track_running_stats=True)
          )
          (1): BatchNorm1d(128, eps=1e-05, momentum=0.1, affine=True, track_running_stats=True)
        )
        (act): ModuleList(
          (0): ReLU()
          (1): ReLU()
        )
        (add): Add
      )
    )
    (head): Sequential(
      (0): Sequential(
        (0): GAP1d(
          (gap): AdaptiveAvgPool1d(output_size=1)
          (flatten): Reshape(bs)
        )
        (1): LinBnDrop(
          (0): Linear(in_features=128, out_features=5, bias=True)
        )
      )
    )
  )
  (fc): Linear(in_features=5, out_features=5, bias=True)
)
number of parameters: 457251
Training start
epoch  1 | time used:  2.94s | train_loss 1.472 | valid loss 1.397 | valid acc 0.421 | mae 1.714 | mse 5.794 | rmse 2.41 | r2 -1.03 | sharp 0.00
epoch  2 | time used:  0.83s | train_loss 1.463 | valid loss 1.398 | valid acc 0.421 | mae 1.714 | mse 5.794 | rmse 2.41 | r2 -1.03 | sharp 0.00
epoch  3 | time used:  0.88s | train_loss 1.468 | valid loss 1.398 | valid acc 0.421 | mae 1.714 | mse 5.794 | rmse 2.41 | r2 -1.03 | sharp 0.00
…
