…
2024-09-07 16:09:14.035507: W tensorflow/compiler/tf2tensorrt/utils/py_utils.cc:38] TF-TRT Warning: Cannot dlopen some TensorRT libraries. If you would like to use Nvidia GPU with TensorRT, please make sure the missing libraries mentioned above are installed properly.
wandb: wandb version 0.17.9 is available!  To upgrade, please run:
wandb:  $ pip install wandb --upgrade
wandb: Tracking run with wandb version 0.12.17
wandb: Run data is saved locally in /home/qingyi/GPU20/DeepLOB/wandb/run-20240907_160907-29fj9wyf
wandb: Run `wandb offline` to turn off syncing.
wandb: Syncing run FuturesNet
wandb: ⭐️ View project at https://wandb.ai/pqythu/futures300
wandb: 🚀 View run at https://wandb.ai/pqythu/futures300/runs/29fj9wyf
Model(
  (feature_extractor): InceptionTime(
    (network): Sequential(
      (0): InceptionBlock(
        (bottleneck): Conv1d(10, 32, kernel_size=(1,), stride=(1,))
        (conv1): Conv1d(32, 32, kernel_size=(9,), stride=(1,), padding=(4,))
        (conv2): Conv1d(32, 32, kernel_size=(19,), stride=(1,), padding=(9,))
        (conv3): Conv1d(32, 32, kernel_size=(39,), stride=(1,), padding=(19,))
        (pool): MaxPool1d(kernel_size=3, stride=1, padding=1, dilation=1, ceil_mode=False)
        (conv4): Conv1d(10, 32, kernel_size=(1,), stride=(1,))
        (bn): BatchNorm1d(128, eps=1e-05, momentum=0.1, affine=True, track_running_stats=True)
      )
      (1): InceptionBlock(
        (bottleneck): Conv1d(128, 32, kernel_size=(1,), stride=(1,))
        (conv1): Conv1d(32, 32, kernel_size=(9,), stride=(1,), padding=(4,))
        (conv2): Conv1d(32, 32, kernel_size=(19,), stride=(1,), padding=(9,))
        (conv3): Conv1d(32, 32, kernel_size=(39,), stride=(1,), padding=(19,))
        (pool): MaxPool1d(kernel_size=3, stride=1, padding=1, dilation=1, ceil_mode=False)
        (conv4): Conv1d(128, 32, kernel_size=(1,), stride=(1,))
        (bn): BatchNorm1d(128, eps=1e-05, momentum=0.1, affine=True, track_running_stats=True)
      )
      (2): InceptionBlock(
        (bottleneck): Conv1d(128, 32, kernel_size=(1,), stride=(1,))
        (conv1): Conv1d(32, 32, kernel_size=(9,), stride=(1,), padding=(4,))
        (conv2): Conv1d(32, 32, kernel_size=(19,), stride=(1,), padding=(9,))
        (conv3): Conv1d(32, 32, kernel_size=(39,), stride=(1,), padding=(19,))
        (pool): MaxPool1d(kernel_size=3, stride=1, padding=1, dilation=1, ceil_mode=False)
        (conv4): Conv1d(128, 32, kernel_size=(1,), stride=(1,))
        (bn): BatchNorm1d(128, eps=1e-05, momentum=0.1, affine=True, track_running_stats=True)
      )
      (3): InceptionBlock(
        (bottleneck): Conv1d(128, 32, kernel_size=(1,), stride=(1,))
        (conv1): Conv1d(32, 32, kernel_size=(9,), stride=(1,), padding=(4,))
        (conv2): Conv1d(32, 32, kernel_size=(19,), stride=(1,), padding=(9,))
        (conv3): Conv1d(32, 32, kernel_size=(39,), stride=(1,), padding=(19,))
        (pool): MaxPool1d(kernel_size=3, stride=1, padding=1, dilation=1, ceil_mode=False)
        (conv4): Conv1d(128, 32, kernel_size=(1,), stride=(1,))
        (bn): BatchNorm1d(128, eps=1e-05, momentum=0.1, affine=True, track_running_stats=True)
      )
      (4): InceptionBlock(
        (bottleneck): Conv1d(128, 32, kernel_size=(1,), stride=(1,))
        (conv1): Conv1d(32, 32, kernel_size=(9,), stride=(1,), padding=(4,))
        (conv2): Conv1d(32, 32, kernel_size=(19,), stride=(1,), padding=(9,))
        (conv3): Conv1d(32, 32, kernel_size=(39,), stride=(1,), padding=(19,))
        (pool): MaxPool1d(kernel_size=3, stride=1, padding=1, dilation=1, ceil_mode=False)
        (conv4): Conv1d(128, 32, kernel_size=(1,), stride=(1,))
        (bn): BatchNorm1d(128, eps=1e-05, momentum=0.1, affine=True, track_running_stats=True)
      )
      (5): InceptionBlock(
        (bottleneck): Conv1d(128, 32, kernel_size=(1,), stride=(1,))
        (conv1): Conv1d(32, 32, kernel_size=(9,), stride=(1,), padding=(4,))
        (conv2): Conv1d(32, 32, kernel_size=(19,), stride=(1,), padding=(9,))
        (conv3): Conv1d(32, 32, kernel_size=(39,), stride=(1,), padding=(19,))
        (pool): MaxPool1d(kernel_size=3, stride=1, padding=1, dilation=1, ceil_mode=False)
        (conv4): Conv1d(128, 32, kernel_size=(1,), stride=(1,))
        (bn): BatchNorm1d(128, eps=1e-05, momentum=0.1, affine=True, track_running_stats=True)
      )
    )
    (global_avg_pool): AdaptiveAvgPool1d(output_size=1)
  )
  (lstm): LSTM(8, 64, batch_first=True)
  (skip_connection): Linear(in_features=8, out_features=64, bias=True)
  (fc): Linear(in_features=64, out_features=5, bias=True)
)
number of parameters: 475589
Training start
epoch  1 | time used:  1.61s | train_loss 1.427 | valid loss 1.413 | valid acc 0.340 | mae 1.725 | mse 5.385 | rmse 2.32 | r2 -1.24 | sharp 0.00
epoch  2 | time used:  0.35s | train_loss 1.417 | valid loss 1.594 | valid acc 0.235 | mae 2.275 | mse 7.585 | rmse 2.75 | r2 -2.15 | sharp 2.76
epoch  3 | time used:  0.35s | train_loss 1.281 | valid loss 1.594 | valid acc 0.235 | mae 2.275 | mse 7.585 | rmse 2.75 | r2 -2.15 | sharp 2.76
…
